Task3/trained_params.npy (npy, 1280 bytes, 1 tensors)

array f8 [12, 4, 3]
-0.789943963197882 2.777598077659647 1.4816930988103996 0.6224493029480804 -2.147383702980913 -2.21193116626471 -2.770257170765625 2.315532947607156
0.5455372239323193 1.3025323795293933 -3.045545334825886 2.963306880525658 2.0961247818785727 -1.840685771610665 -2.1242750023338317 -1.9547889461417685
-1.1169286368029954 0.20226751642979227 -0.45740212111379647 -1.454929549020533 0.345447637569774 -2.265250755569217 -1.133561009304626 -0.8165156507082684
-0.6333652568270725 1.636179938263539 -1.8206525946098502 0.1125952662837284 0.5204070628608114 -2.801616533194739 0.6083201156619994 -2.078532828173642
-2.740459234141206 2.8425055734147255 2.9464727753423787 1.9067460979935074 -1.1509948923637032 -2.5118306805736847 1.1201636466995486 -0.34373799508186265
-2.2944818378126826 -0.08314711626393707 -2.7365693653125547 2.570227590811454 -1.630075135988263 0.8824270519660607 -1.2916809362712969 0.06699947812334896
0.25711788190960083 -1.8922402015162232 3.094728826550659 1.6830851173468218 2.6667392725960504 2.484764809799894 0.6852405111452381 2.6770237227660165
-2.5994275115825496 -1.833810096407221 -2.7179075679433184 -1.189927816631163 -0.7133108644593927 -1.2685714278102433 2.0468837747565196 -0.9924913102941821
-1.3419911909929498 0.22431678088624804 -2.196192071650716 1.867287120892194 -2.7025875708617604 3.1783363720313 1.7701776967482052 -1.773072636091188
-3.004735979774351 2.013485862891129 1.317271075067716 1.4414033688038335 1.5689339702897358 -2.6920112228864297 -0.9157194513513556 -2.444801738007513
2.2949545915013156 0.6627636661556545 -0.9728728712165464 -2.850956545700942 -1.1855901188377032 -1.048706101830576 1.499567585896476 0.8453888793826442
2.457492158082729 -0.2392107978474942 -2.448429097042986 1.5540385128644012 1.6696428715859555 0.22672575112722432 1.6021297728589097 0.04945707744417996
0.17391666534771602 -0.599435790887209 -2.9119474314219107 -2.3752503295275713 -3.0548177763183424 0.822711996635278 -1.1494204240654955 0.03291749670521505
2.5862918249786926 -1.3495923029426191 -0.45104246804158465 1.8376293494447176 -1.7021609925145635 -2.595915219354947 -1.3473052708485043 -2.1398220842561164
2.7350387572692254 1.9752665931686306 0.7394462874885928 2.430604455339133 1.9427128310957769 -1.843508361456125 2.3980499363211063 0.18481935279321215
1.978017517736452 2.5337132918870764 -1.2771508679308883 -2.4826907542291607 -1.7979400328159973 -0.45699812666020356 1.9254140953047747 2.1826027080709434
-3.0133376358926225 0.03509830172046833 -0.5004721457407738 -1.7460481222302726 -2.303882845429115 -1.0570301190468825 2.782883744030401 -1.1108487398796214
0.11806495845068721 1.2756057396090776 -0.8568404786646582 2.964294250342924 2.905642048925218 -1.5573601474087604 -0.010409685265260163 -1.2511184781000384
00000000: e470 f38f 3847 e9bf 60d8 4757 8538 0640
00000010: cf97 a1d2 03b5 f73f 608f f2cc 1aeb e33f
00000020: 9621 c281 d72d 01c0 6be1 a0f7 08b2 01c0
00000030: 3195 6f97 7c29 06c0 0744 5623 3686 0240
00000040: 3047 f17a 0a75 e13f f5f4 4031 2cd7 f43f
00000050: 1a80 5cdf 465d 08c0 b2f4 de3c dab4 0740
00000060: 6107 d411 ddc4 0040 3d7c 74ec 7273 fdbf
00000070: 80df 75e4 83fe 00c0 e12d 24c6 d046 ffbf
00000080: 3e8e f08f f0de f1bf 01f7 0de8 e6e3 c93f
00000090: a181 d38b 1346 ddbf 7c6f f034 6447 f7bf
000000a0: d1ed 7568 d01b d63f ca45 c3c9 3b1f 02c0
000000b0: f5be 6fde 1023 f2bf 7fda 0e6e e520 eabf
000000c0: 5cd6 0f37 8744 e4bf 4369 d303 cb2d fa3f
000000d0: 30a1 739d 6421 fdbf 907e 5f1a 0bd3 bc3f
000000e0: f906 73b6 2ca7 e03f d008 d0ed b569 06c0
000000f0: 1b8d 48bf 5b77 e33f 6f58 c5d1 d5a0 00c0
00000100: f142 15e4 75ec 05c0 9e1c e48f 73bd 0640
00000110: f032 8551 6092 0740 0b86 4a32 0882 fe3f
00000120: d60a c99e 796a f2bf 293a 11af 3a18 04c0
00000130: efe1 4bb7 30ec f13f b83a d1a5 cdff d5bf
00000140: 205f 354b 195b 02c0 e53d 1c21 2149 b5bf
00000150: f005 ba7a 7ee4 05c0 1c7f ae7b d38f 0440
00000160: 3c7a 71aa c914 fabf f998 29a8 d73c ec3f
00000170: 1a6e 22a1 b9aa f4bf c18b 63b7 e026 b13f
00000180: 862f 818f 9e74 d03f 9f04 5ba9 9d46 febf
00000190: 3430 e02f 01c2 0840 0639 f6a8 eaed fa3f
000001a0: 2812 5666 7b55 0540 d6bc 625f cce0 0340
000001b0: 7d6b 2882 7ded e53f 712b df69 8b6a 0540
000001c0: c58e b4a6 a0cb 04c0 464c 7241 4957 fdbf
000001d0: 8af0 ae52 46be 05c0 2681 10c0 f109 f3bf
000001e0: af81 574e 71d3 e6bf 3e5c b18d 114c f4bf
000001f0: 9856 ba99 0460 0040 ece2 e822 7dc2 efbf
00000200: 615b 4dc1 cb78 f5bf ffda ec8a 69b6 cc3f
00000210: 65cb 1b26 cd91 01c0 6395 c775 68e0 fd3f
00000220: 336b 7b3b e69e 05c0 687e ac9e 3b6d 0940
00000230: 3c46 3ad9 a552 fc3f 491b 9769 815e fcbf
00000240: 7df6 7104 b309 08c0 1d9b e079 9e1b 0040
00000250: 221f b6d5 8a13 f53f 02b5 95fa fc0f f73f
00000260: 47a5 bf81 5a1a f93f f318 162e 3d89 05c0
00000270: 30af fbe0 924d edbf e091 af36 f48e 03c0
00000280: ef6c 2227 115c 0240 fbb2 e325 5c35 e53f
00000290: 4e4d a149 c621 efbf 47d2 304e c2ce 06c0
000002a0: 26e6 2d58 2df8 f2bf c4a5 a70c 80c7 f0bf
000002b0: 9412 b994 3afe f73f ab37 abfa 6c0d eb3f
000002c0: 5f22 09a6 f1a8 0340 6f72 cd9c 759e cebf
000002d0: d8fe 92fe 6196 03c0 1da2 d77c 57dd f83f
000002e0: 1a61 9771 dbb6 fa3f ba50 2073 5905 cd3f
000002f0: e307 26d4 52a2 f93f 5463 5b24 7052 a93f
00000300: a9eb f2ba e642 c63f da32 bdf7 932e e3bf
00000310: c706 4d18 ab4b 07c0 b912 a93e 8300 03c0
00000320: bb36 644d 4470 08c0 8669 f21b a853 ea3f
00000330: bb73 abab 0664 f2bf 0153 a1e7 8fda a03f
00000340: ac90 b1c4 b9b0 0440 6526 4119 ee97 f5bf
00000350: 7620 563a e1dd dcbf 9d8e 6008 ee66 fd3f
00000360: fe07 362a 0d3c fbbf 998b d232 6fc4 04c0
00000370: 2d5d c0f8 8f8e f5bf ce1b 790a 5b1e 01c0
00000380: 461c feff 5be1 0540 52a6 a824 b19a ff3f
00000390: 1630 bd42 8ba9 e73f 398c a9bf e071 0340
000003a0: 0637 b10c 5a15 ff3f a6b4 a59f 027f fdbf
000003b0: 6c64 15ce 342f 0340 f415 f519 29a8 c73f
000003c0: 977d 59b2 f5a5 ff3f 93c3 7079 0b45 0440
000003d0: 8e23 9dbf 356f f4bf 70f7 5bf8 8cdc 03c0
000003e0: 6fd2 91c4 5cc4 fcbf 8eaf 1512 753f ddbf
000003f0: 8476 a902 7fce fe3f 1c9b 9a68 f875 0140
00000400: d9b7 2fc3 501b 08c0 cdb0 1194 67f8 a13f
00000410: 8b7f 5029 de03 e0bf 2a8a e327 d0ef fbbf
00000420: c077 1721 5a6e 02c0 f317 036a 98e9 f0bf
00000430: e271 698d 5843 0640 605f 0954 09c6 f1bf
00000440: c06b 594f 8139 be3f c45f 6390 e168 f43f
00000450: 401e 38b9 3c6b ebbf b08c 67e7 dfb6 0740
00000460: 4421 3042 c13e 0740 0a6e 5379 f2ea f8bf
00000470: e822 354e ac51 85bf 7bc6 2dcf 9404 f4bf
