Task3/trained_params_synthetic.npy (npy, 1280 bytes, 1 tensors)

array f8 [12, 4, 3]
-0.739617910404885 2.7691404653142575 1.412886058802568 0.6448582588110119 -2.1775291576798765 -2.23025975242228 -2.7242034030741533 2.3189944982586836
0.548578758151848 1.263513599058257 -2.905460937175444 3.005731503327369 2.1583652143548964 -1.8250596022261312 -2.140579069520039 -1.9303392390146932
-1.167930359414102 0.24443482712014408 -0.44217211901925785 -1.4568118716063203 0.4409663073658594 -2.2820341717668304 -1.2466235690847725 -0.7577712408992102
-0.5378465870309871 1.5591166703422963 -1.8234350787378577 0.17133967609278689 0.5012305515683346 -2.7389676606571176 0.5694328040418672 -2.028218870058997
-2.713461046014248 2.8809441610562314 2.9806152460865993 1.8675697431112228 -1.2951007556490235 -2.602407807252437 1.2600137851038236 -0.4103645285024738
-2.3078588851347184 -0.03714790087112624 -2.7927701965934717 2.528999169851537 -1.6109377741989126 0.9044620075683598 -1.315639271194663 0.10756244353909196
0.317671611833945 -1.9520523585798208 3.0838212653004335 1.63997485486976 2.6811746258903755 2.499306540055048 0.7133400635573272 2.6735104468513966
-2.623607710061303 -1.8098867394444822 -2.7007841107501434 -1.2443688984484471 -0.737491062938145 -1.3590224632717407 1.984436179345655 -1.0469323921114657
-1.4194847857189934 0.20707505609286142 -2.121436467232271 1.8082843519867757 -2.6896944821278486 3.152863261920464 1.773172125912693 -1.720628987145056
-3.0113129897863504 1.9765295565331527 1.2294457563047643 1.445329870133587 1.5898821111645147 -2.6863067876740314 -0.9238881904224101 -2.402464406094547
2.308388127348603 0.668996678831395 -0.9060355766504876 -2.793988576749475 -1.2099375397251444 -1.06701558675792 1.497678474614241 0.9284689116659133
2.4001696024220713 -0.2857514565028285 -2.4034383428245345 1.5032641289879807 1.6532881194174134 0.20460457121579004 1.5632422986121834 -0.010055737334631045
0.15756191317917487 -0.6144173335474316 -2.881894920288648 -2.434763144306381 -3.018762052044661 0.8802908284537507 -1.0752169486718979 0.018750010659669556
2.6590554833278537 -1.43934849090835 -0.5090145922033459 1.7661822196762238 -1.6277404018105193 -2.6206327955557907 -1.3646208677052416 -2.0895319513330572
2.703894784245583 1.9378374405568994 0.7543302604394233 2.402889565561934 1.9781747879437819 -1.871486006807953 2.4478589201910403 0.27215122226917915
1.8491594784359782 2.574099516173225 -1.1832008596485462 -2.461154665578872 -1.7329375892622392 -0.45711387605401266 1.9327196102094735 2.1660701115649417
-3.0703449783092753 0.0716796411445577 -0.6357571216474889 -1.7460481222302726 -2.3608901878457678 -1.0570795709357668 2.782883744030401 -1.1108487398796214
0.11806495845068721 1.2756057396090776 -0.8568404786646582 2.964294250342924 2.905642048925218 -1.5578638465296397 -0.01705074282145468 -1.2511184781000384
00000000: e231 172e f3aa e7bf 8e70 c41d 3327 0640
00000010: 7680 7869 2e9b f63f f8c2 84c9 ada2 e43f
00000020: 6d92 3268 946b 01c0 f5e8 d16c 92d7 01c0
00000030: d9d7 5e27 2bcb 05c0 f3ff ccfc 4c8d 0240
00000040: 005c 310a f58d e13f 811a 2009 5a37 f43f
00000050: d7ca c74d 623e 07c0 a2c8 5af5 bc0b 0840
00000060: 94d3 43fb 5444 0140 f6fd 8cb2 7133 fdbf
00000070: b5b9 50eb e71f 01c0 e30e dc65 abe2 febf
00000080: 8706 9bbe d7af f2bf e401 3ef2 a349 cf3f
00000090: c101 9949 8c4c dcbf 4394 0ff7 194f f7bf
000000a0: 508d 31bf ca38 dc3f 6ebe c021 9b41 02c0
000000b0: 3345 3a8e 2bf2 f3bf c35d 3079 a93f e8bf
000000c0: 9d06 b20b 0a36 e1bf 164c 5c52 24f2 f83f
000000d0: bbee d842 ca2c fdbf 44b2 a960 75ee c53f
000000e0: c8be 57a7 140a e03f 7197 7ae0 67e9 05c0
000000f0: 0424 d424 cb38 e23f 8a44 a0d0 ca39 00c0
00000100: 26cf 9c10 2bb5 05c0 99b5 ca73 2c0c 0740
00000110: 1e35 5fce 4cd8 0740 d496 9acf 90e1 fd3f
00000120: 5e99 e891 bbb8 f4bf c808 382f bbd1 04c0
00000130: 447b f836 0429 f43f 49d2 5695 6943 dabf
00000140: 3b7e 1bb8 7e76 02c0 088c b6b6 0c05 a3bf
00000150: 4de6 9ce6 9757 06c0 eefc b0ea 633b 0440
00000160: af34 01b0 66c6 f9bf 2861 df4e 5af1 ec3f
00000170: 63d4 b1c3 db0c f5bf 293b 4759 3689 bb3f
00000180: 0e71 ec4f bb54 d43f 43e1 0241 9b3b ffbf
00000190: ca65 c97b aaab 0840 f2d8 fe45 563d fa3f
000001a0: 7a83 a8ae 0b73 0540 07b9 616d 94fe 0340
000001b0: 11f8 7c8a aed3 e63f c3ed f571 5963 0540
000001c0: 56f9 010a 26fd 04c0 cc0c 36cc 4bf5 fcbf
000001d0: 93d3 29b3 349b 05c0 15ee af5c efe8 f3bf
000001e0: ea2b 8ddb 8699 e7bf f980 a456 8ebe f5bf
000001f0: d79e b426 40c0 ff3f 63de 132e 3cc0 f0bf
00000200: 8352 bdad 35b6 f6bf fa3b de78 6f81 ca3f
00000210: 5f6f baae b3f8 00c0 966d 9a92 bbee fc3f
00000220: 21c4 678a 7e84 05c0 8caa b55f 1039 0940
00000230: ba94 2fbc e95e fc3f e466 c542 b287 fbbf
00000240: 0738 c943 2b17 08c0 4632 ce74 dd9f ff3f
00000250: 268f 3850 cfab f33f ae7d c236 1220 f73f
00000260: 0627 7f39 2870 f93f 89a9 c069 8e7d 05c0
00000270: c0cb 60f7 7d90 edbf 55d7 2f42 3f38 03c0
00000280: d77e cb31 9477 0240 a4d4 16b9 6b68 e53f
00000290: 393e 5752 3efe ecbf eb4a d4ae 165a 06c0
000002a0: b727 3577 e75b f3bf 0829 97ef 7e12 f1bf
000002b0: e542 46b4 7df6 f73f 62a6 5e6f 04b6 ed3f
000002c0: 880c da1e 8c33 0340 6cb2 1d7a c049 d2bf
000002d0: 0c12 c3e1 3d3a 03c0 870d f4af 5e0d f83f
000002e0: cb35 3c3e de73 fa3f 21f1 fd8a 7b30 ca3f
000002f0: 0b36 445b 0a03 f93f fb4d ea37 1a98 84bf
00000300: 5391 1920 fd2a c43f d5d0 358a 4ea9 e3bf
00000310: a82f 89ec 1e0e 07c0 916a 7219 657a 03c0
00000320: 5980 ffb7 6c26 08c0 f2ae e5ab 572b ec3f
00000330: 5169 eaaf 1634 f1bf 29ec 54ea 3333 933f
00000340: 0e24 99e1 be45 0540 1bf9 7f48 9207 f7bf
00000350: 9b67 56f8 d849 e0bf bd93 8449 4842 fc3f
00000360: 1c77 0285 390b fabf bce5 bd53 0ef7 04c0
00000370: 01bb e3b0 7cd5 f5bf 5f61 1787 5cb7 00c0
00000380: 2e47 b196 93a1 0540 e87f 02d5 6101 ff3f
00000390: 380e df36 7923 e83f bde7 1f2a 1e39 0340
000003a0: 2ed8 3f9b 9aa6 ff3f b396 a24f 9bf1 fdbf
000003b0: 058a bb0e 3795 0340 719a cdf5 ec6a d13f
000003c0: fc88 cf3f 2896 fd3f 4be8 b47c c197 0440
000003d0: 2ba2 4c06 64ee f2bf fb78 78db 71b0 03c0
000003e0: 123f fec3 1cba fbbf 3ac9 0c8f 5a41 ddbf
000003f0: 3b00 e365 6bec fe3f b01d 1091 1c54 0140
00000400: 9735 2a07 1190 08c0 8f40 81d2 9859 b23f
00000410: 149a b551 1f58 e4bf 2a8a e327 d0ef fbbf
00000420: 7ef5 1165 1ae3 02c0 7305 a744 cce9 f0bf
00000430: e271 698d 5843 0640 605f 0954 09c6 f1bf
00000440: c06b 594f 8139 be3f c45f 6390 e168 f43f
00000450: 401e 38b9 3c6b ebbf b08c 67e7 dfb6 0740
00000460: 4421 3042 c13e 0740 f572 07a4 02ed f8bf
00000470: 5da1 29fb bf75 91bf 7bc6 2dcf 9404 f4bf
